checkpoints/ae.pth (torch, 984786 bytes, 13 tensors)

encoder.0.weight f4 [32, 3750]
000000 ef c8 3f 3d 85 82 e3 3c bb 4d 8d 3c aa 84 bc 3c
       0.046822485 0.027772197 0.017248979 0.023012478
000010 25 7c 35 bc 76 f2 05 bc c4 cf 60 3c fb e9 05 3c
       -0.011076962 -0.008175483 0.01372141 0.008173461
000020 96 75 17 bd 8f 09 92 3c 6e ff 3f bc c0 a1 19 bd
       -0.036977373 0.017826824 -0.011718614 -0.037507772
000030 5a 69 82 3c df ee 62 3b 58 b1 96 bc ea 92 f7 3b
       0.015919376 0.0034627242 -0.018395111 0.0075553553
000040 d5 ff a4 3c cd 47 ad 3b 1d d5 a4 3c 1a 2c c5 3c
       0.020141521 0.0052881003 0.020121152 0.02406888
000050 55 b1 c1 3a 6f 80 b6 3c 91 f6 38 bc eb 70 a7 bb
       0.001477758 0.022278039 -0.011289255 -0.0051098964
000060 71 40 e6 3a 7b 22 53 3c 30 29 03 bc 54 f4 36 3c
       0.0017566812 0.012886639 -0.008005425 0.011166651
000070 20 03 1d 3d ce 10 65 bc 67 c2 fa 3a 62 54 03 3d
       0.03833306 -0.013981057 0.0019131423 0.032062896
000080 0c 8e 84 bb 0b ed 86 3c 41 4e 98 3c 66 8e 4a bd
       -0.0040452536 0.016470453 0.018592002 -0.049452208
000090 e1 a4 08 3d 3a 2b a2 3b e8 1d 42 bc f5 58 a5 3c
       0.033360366 0.0049490007 -0.0118479505 0.02018402
0000a0 c4 6d 83 3c f0 e7 c9 bc 40 4e 96 3b 2f 3b 87 3c
       0.016043551 -0.02464673 0.004586965 0.016507713
0000b0 25 be e0 bc fd c6 dc 3b 6f f3 25 bc 71 41 9d bc
       -0.027434418 0.0067375884 -0.01012884 -0.019196244
0000c0 60 21 59 3c c6 1e 66 3b 4d 66 00 bc b8 70 fa 3c
       0.013252586 0.0035113557 -0.00783689 0.030571327
0000d0 a0 30 45 bc a0 af 4b bc 4c 89 52 3c 65 e7 43 ba
       -0.012035519 -0.012432009 0.012850117 -0.000747314
0000e0 5b a7 0c bc 53 a3 5f bb 05 f8 41 bc 89 46 4f 3b
       -0.0085848225 -0.0034124448 -0.011838918 0.0031627736
0000f0 21 18 45 3c 32 bd 8e bb c6 43 ce 3c e8 b0 bc bb
       0.012029679 -0.00435605 0.025178801 -0.0057583936
000100 89 b5 89 bc 9a 33 10 3c a8 0a f3 3c 8f 49 ee b6
       -0.016810196 0.008801365 0.029668167 -7.101516e-06
000110 1e 38 b8 3c f5 38 eb 3c 9c 94 78 bc c9 77 a8 3c
       0.022487696 0.028713683 -0.01517215 0.02056493
000120 bb b2 b6 3c 9e 55 1f bc ae f9 e5 3b 70 79 b7 bb
       0.022302022 -0.009725003 0.0070182895 -0.0055991933
000130 82 dc 04 bd 46 09 03 bb ce 78 08 3c c6 c8 1f bd
       -0.032436855 -0.001999454 0.008329583 -0.03900983
000140 e1 8a 3f 3b d5 6e 97 bc 8f d4 bc bc f0 37 1f ba
       0.0029227065 -0.018485466 -0.023050575 -0.0006073704
000150 d4 da f2 bc c8 2c 10 bd 24 92 b9 3b 5f a8 16 bd
       -0.029645361 -0.035198957 0.0056631733 -0.036781665
000160 80 24 90 bc 9b a9 5b 3c dc 20 2a bd 48 f7 b6 bc
       -0.01759553 0.013407136 -0.041535243 -0.02233471
000170 d2 e4 3e 3c d8 e6 d6 bc 2e fb 49 3a 27 d6 45 3b
       0.011651235 -0.026233122 0.000770497 0.003018746
000180 b3 1c 7e bc 58 c9 20 3b 90 0f 62 bb 31 9f 3b bc
       -0.015509772 0.0024534073 -0.003449414 -0.011451528
000190 c8 24 5c 3b 61 f4 0d bc 87 06 7d bb 2f 18 6a bb
       0.003359126 -0.0086642215 -0.0038608627 -0.003571998
0001a0 0b 05 29 3c da 0d e2 bb 47 ad 35 bb ee ec 65 bb
       0.010316144 -0.006898624 -0.002772169 -0.0035083848
0001b0 21 17 43 bc 4f 76 23 bc 89 88 9c 3b 76 ab 29 3c
       -0.01190737 -0.009976937 0.0047770184 0.010355821
0001c0 80 97 d6 3b 9e e0 3e 3c 98 1e 83 bc 12 83 9e bc
       0.006548822 0.011650233 -0.0160058 -0.019349609
0001d0 17 5d 8f 3b 06 99 b3 bc 56 0a 4e 3a 9f 1c 10 bc
       0.004375111 -0.021923553 0.00078598165 -0.008795886
0001e0 f1 d7 94 bc 51 db 62 bc 91 25 2d bc af 19 95 bc
       -0.018169375 -0.013846234 -0.010568039 -0.018200723
0001f0 a8 a5 70 3c 5c 5a 4b bc 4a 2e ae bc 0b dc a4 3c
       0.014687933 -0.01241168 -0.021262307 0.020124456
000200 2b 64 0f bc 24 25 2d bd b6 4c 7c 3c 6a b0 5d 3c
       -0.008751909 -0.04227175 0.015399149 0.01353083
000210 b3 9d 17 bd c6 d5 f8 3a e9 44 59 3c 80 7d ce bc
       -0.037015628 0.0018984608 0.013261058 -0.025206327
000220 93 56 36 3c 41 e3 39 3c 29 0d a0 bb 56 61 d1 3c
       0.011129039 0.011345685 -0.0048843813 0.025559109
000230 37 7c 28 ba 51 2c 60 3c c5 5b e2 3b db 6f 0a bc
       -0.0006427201 0.013682441 0.0069079124 -0.00844952
000240 bf 61 29 3c 96 50 98 3a 67 97 c9 3a 7b 53 20 bc
       0.010338246 0.0011620696 0.0015380204 -0.009785528
000250 24 86 7d bc 5c 24 72 bc f6 ea bc bc 98 fc 36 3c
       -0.015473876 -0.014779177 -0.023061257 0.0111686215
000260 53 92 90 bc 6b eb b1 3b 6a 12 15 bc 7b 8d 54 3b
       -0.017647898 0.0054296753 -0.009098629 0.0032432962
000270 5c f6 67 bb ab 77 44 3c 30 f4 fc 3b 71 34 bf bc
       -0.0035394644 0.011991422 0.007719539 -0.023340436
000280 b5 87 04 bc 80 19 46 3c 5b e4 d1 bc 59 0a 15 3a
       -0.008088996 0.012091041 -0.025621584 0.0005685441
000290 96 8b 3a bc 17 08 6d bc 79 2e ea bb ff d3 e3 3a
       -0.011385819 -0.014467261 -0.0071466533 0.0017381905
0002a0 ce 9c 9d bc ff d2 b4 3c 12 92 85 bc 24 c3 6f bc
       -0.01923981 0.022073267 -0.016305003 -0.0146339275
0002b0 cc e9 d5 bb e9 e1 98 bc 1e 88 22 3c 9b 7a 19 bb
       -0.006528115 -0.01866241 0.009920148 -0.0023419026
0002c0 d7 be f5 3a 30 a8 65 3a f7 43 fe 3c 58 62 0f bc
       0.0018748891 0.00087607186 0.031038268 -0.008751474
0002d0 d3 a9 08 bb 4e 44 4a 3c 69 41 e1 bc a2 ef 9e bc
       -0.0020853176 0.012345387 -0.02749701 -0.019401375
0002e0 7d 09 b9 3b 7e 69 79 bc ca 79 b8 bc 38 fa 5b 3c
       0.005646883 -0.015222905 -0.022519011 0.013426356
0002f0 40 8c 6b bc 03 c5 10 bd d6 ed 95 bc e5 4e 71 bc
       -0.0143767 -0.035344135 -0.018301886 -0.014728283
000300 a3 8d dc bc 57 dd 75 bc d8 d4 77 bc d6 2f 2a 3c
       -0.026923006 -0.015006385 -0.0151264295 0.010387382
000310 9c a5 c1 3b e3 36 b9 3c 93 03 07 3c ef 8c 3a bb
       0.0059096348 0.02260918 0.008240598 -0.002846535
000320 3f 80 85 3b 83 b2 3f bc 70 d9 44 bc 5a 55 bc 3b
       0.004074126 -0.011700275 -0.012014732 0.0057474794
000330 ac 39 04 bd 64 e2 18 bc b8 6b ed bb af 70 c3 bc
       -0.032281563 -0.0093313195 -0.007245507 -0.023857443
000340 83 92 4c bb 29 62 c8 bc b1 d7 fe bc e3 db 00 bc
       -0.0031215257 -0.024460869 -0.031108709 -0.007864925
000350 cd 31 9a 3c cd 10 fa bb 2e fa a2 bc f5 6e 0a 3c
       0.018822575 -0.0076313973 -0.019894686 0.008449306
000360 19 d2 4a ba 1a d1 3d bc 48 98 fc 3c 7a 57 2e 3c
       -0.00077369955 -0.011585498 0.030834332 0.010640973
000370 52 36 ee bb 0e 9a 10 3c ef 5a 94 bc dd 1d 88 bc
       -0.007269659 0.008825792 -0.018109767 -0.016615802
000380 5e de e3 3b 63 70 98 bb fc b9 cb 39 75 5e af 3b
       0.0069539985 -0.0046520694 0.00038857746 0.0053518363
000390 d1 bb 4d bc 24 24 96 3b 88 df a9 3c 8a ea bb bc
       -0.012556986 0.004581945 0.02073647 -0.022938985
0003a0 89 d0 83 bc 18 ff ea bc a6 ee 67 bb 35 8f a5 bb
       -0.016090648 -0.028686091 -0.0035390048 -0.005052472
0003b0 58 13 ac bc 03 7c c1 bb 63 47 71 3c 52 6b ed bc
       -0.021005318 -0.005904676 0.014726493 -0.028981838
0003c0 04 6a 61 bc 6b 32 52 3a c1 54 05 bd 22 88 b4 bc
       -0.013758186 0.0008018377 -0.03255153 -0.02203757
0003d0 90 be a2 bc f7 41 ee ba db 11 0f 3c 7e eb 8f bc
       -0.019866258 -0.0018177618 0.008732284 -0.017568346
0003e0 f8 79 02 bc 9d 15 24 3c ed 56 0f bd f0 ae a2 3b
       -0.00796365 0.010014919 -0.03499501 0.004964702
0003f0 16 d9 f4 ba 30 24 25 bc 22 5d e5 39 79 70 5d 3c
       -0.0018680419 -0.010079429 0.00043747673 0.013515585

encoder.0.bias f4 [32]
000000 e7 d3 8b 3f 55 97 67 3f f0 00 49 3f ad 1a ac 3e
       1.0924042 0.9046529 0.78517056 0.33614102
000010 6b d8 60 3f 3e 02 91 3e 85 43 2e 3f 27 f5 6c 3f
       0.8783023 0.28322023 0.68071777 0.9256157
000020 2b b4 6d 3f 51 f7 27 3f 79 3b ce 3e 6d 76 9d be
       0.9285304 0.6561175 0.4027975 -0.30754414
000030 17 c5 d5 3e 43 fd d9 3e cf d4 af 3e 8b 2a 6c 3f
       0.4175193 0.42576036 0.34342048 0.92252415
000040 60 78 64 3e 02 74 f5 3e c0 bf e3 bd 3f ad 6a 3f
       0.22311544 0.4794007 -0.11120558 0.916706
000050 c7 63 50 3f 02 c2 47 3f 99 b0 b0 3e b1 ca 56 3f
       0.8140225 0.7803041 0.34509733 0.8390303
000060 76 79 2b 3f a8 83 41 3f 12 72 95 3e 54 38 55 3f
       0.6698221 0.75591516 0.2918859 0.83289075
000070 ec 10 ae 3e 99 98 2f 3f 21 fa 6c 3f 2e f4 1b 3f
       0.33997285 0.6859222 0.92569166 0.60919464

encoder.2.weight f4 [16, 32]
000000 21 ca 07 3e 04 c0 46 3e 12 f5 8f bd 63 97 ce 3e
       0.132607 0.19409186 -0.07029165 0.40349874
000010 73 ff 3f 3e 1c 0b b2 3d 22 ed e7 3d e8 63 07 3e
       0.1874979 0.08693525 0.11324526 0.13221705
000020 45 a8 0c b9 e8 b9 fd 3d eb 84 9d 3b 91 55 73 bd
       -0.00013414126 0.123889744 0.004807105 -0.059407774
000030 5c e7 52 3e 46 87 f9 bc ae 93 68 be aa c0 ac 3c
       0.20596069 -0.030460011 -0.22712585 0.021087963
000040 60 69 ed 3c ff 1d e5 bd 6f 07 3c be 4f 0e 9f 3d
       0.02898091 -0.11187362 -0.1836221 0.07766401
000050 14 a7 00 3e 0d 88 8d 3d 3f 2f 1a 3f 85 cd 8c 3d
       0.12563735 0.06910715 0.6022834 0.06875137
000060 3c bb 5f 3e da 67 5f 3e 02 ec 72 3d 89 0d 96 3d
       0.21848768 0.2181696 0.059307106 0.073268004
000070 9a b0 b8 3e de 41 f8 3e 5b d6 d0 3d aa f2 bb 3e
       0.36072236 0.48487753 0.10197135 0.36708575
000080 27 f7 a3 3e 35 d7 12 3e e9 53 06 3d ad 03 1c 3f
       0.320245 0.14339907 0.032794867 0.6094311
000090 82 1c 93 3e 38 59 7a 3d ea df b1 3e d5 c4 73 3e
       0.28732687 0.061120242 0.34741145 0.23805554
0000a0 19 9a 82 3d c9 16 21 bd 46 50 bc 3d 98 b0 f1 bd
       0.06377048 -0.03932837 0.091949984 -0.11801261
0000b0 e8 fe 7f 3e c6 20 eb 3d 12 8d 8b 3e bd 89 36 bd
       0.24999583 0.114808604 0.27256066 -0.04456495
0000c0 d9 79 81 3d f9 81 61 3e 72 3b 1d 3e d6 0f 67 3e
       0.06322069 0.22022237 0.15354708 0.22564635
0000d0 bc 84 b3 bd a1 42 c6 3d 95 12 0d 3f 70 c8 9c bd
       -0.087655514 0.09680677 0.5510648 -0.07655418
0000e0 20 7c 6f 3e 17 d1 c7 3e 40 27 02 be 61 93 c8 bd
       0.23387194 0.3902671 -0.12710285 -0.09793735
0000f0 f8 ee 1e 3e d5 f8 54 3e 6d d3 35 3e af 8f 37 3e
       0.15520847 0.20798047 0.17756434 0.17925905
000100 26 a7 02 3e 0b c8 a7 bd 0c 52 5b bd 1f 51 4a bd
       0.12759075 -0.08192452 -0.053545043 -0.04939377
000110 42 f3 27 be 0b 6a 86 bd ee 3c a2 3b 83 a8 1d 3e
       -0.16401389 -0.06563195 0.004951111 0.15396313
000120 52 6a 99 3d 8e 32 5b 3c a7 11 f0 3c 1c ea d1 3d
       0.07490982 0.013378752 0.029305292 0.10249731
000130 38 a2 a8 bd 3c ef b1 bd 0e 89 07 3e 1f 4a 97 bb
       -0.08234066 -0.086882085 0.13235876 -0.00461699
000140 3a 25 84 bc e1 4a b9 3d 88 18 27 be df 98 ce bd
       -0.016131032 0.09047485 -0.16317952 -0.100877516
000150 94 66 41 be 73 e2 1d 3e f6 d0 3b 3e 92 61 9b 3d
       -0.18886787 0.15418415 0.18341431 0.075869694
000160 e4 dd 39 bd 86 c6 0f 3d 67 2d 84 bd 0b d8 e3 bd
       -0.045377627 0.035101436 -0.06453972 -0.11125191
000170 0a 77 4a 3d ac 24 2c bb 66 2c b5 3d 55 eb 00 be
       0.04942993 -0.0026266975 0.08846359 -0.12589772
000180 c4 fb 9a 3e ed 60 ba 3e dc 0e ca 3e 33 4a de 3e
       0.30270207 0.36402074 0.39464462 0.43415985
000190 57 b9 5f 3e 66 f8 62 3e f8 7f ac 3e 44 aa 37 bc
       0.21848045 0.22165069 0.33691382 -0.011210028
0001a0 28 03 6f 3d 91 64 b4 bd 12 e9 49 3e 84 e3 85 bd
       0.05835262 -0.08808244 0.19717816 -0.06537536
0001b0 96 20 b3 3d f1 95 c7 3a 39 75 b9 3e 72 ac 12 3e
       0.0874645 0.0015227181 0.36222246 0.14323595
0001c0 bd 53 97 3e 24 51 62 3e 97 c3 ce 3d 07 40 77 bc
       0.29556075 0.22101265 0.100958996 -0.015090949
0001d0 b4 7d be bd b8 76 82 3e ea bf 1b 3e 08 65 ed 3d
       -0.0930132 0.254812 0.15209928 0.11591536
0001e0 75 d9 f4 3d 8c 91 9e 3e 7f 88 d1 bd cd cd 09 3d
       0.11955539 0.30970418 -0.10231113 0.033643533
0001f0 9b ec a6 bd 6e 13 90 3e 2f 1a d2 3d 02 0e ad 3d
       -0.08150598 0.28139824 0.102589004 0.084499374
000200 2c ac fb 3e 36 b1 94 3b f7 b3 bd bd 51 8c b0 3e
       0.49154794 0.0045377268 -0.09262841 0.34482053
000210 48 4d c0 3e 6d da 58 3e 81 cd 2c 3e 16 73 24 bc
       0.3755896 0.21177073 0.16875269 -0.010037204
000220 fc 15 36 3d 31 a0 bb 3d bf d5 67 be e4 8f 7f 3c
       0.04445456 0.091614135 -0.22640131 0.015598271
000230 3b 60 a4 3e e8 1b 82 bd 66 c5 4e be ab 59 04 3e
       0.32104668 -0.06352979 -0.20192489 0.1292483
000240 3d d1 79 3e 93 8c 57 be ab 75 10 3c 08 13 0d 3e
       0.24396224 -0.21049719 0.008817117 0.13776791
000250 0f 7a 9a 3e 62 68 21 3e 47 e9 20 3f b7 a9 95 bc
       0.30171248 0.15762475 0.6285595 -0.018269403
000260 91 d0 df 3d b6 f4 d2 3e c5 7c 21 bd c6 c7 e2 3d
       0.10928453 0.41202325 -0.03942563 0.1107326
000270 a7 85 fd 3e 44 dc d9 3e c0 6b 0f 3e 4b 05 ac 3e
       0.4951603 0.42550862 0.14005947 0.33597788
000280 90 7c 42 3e ad c7 6d bd ff 8c 3e be d3 1b e2 3e
       0.1899283 -0.058051754 -0.18608473 0.44161853
000290 fe 92 e1 3d 36 5e 34 3e 90 f8 af bc f2 d8 8e 3e
       0.11014365 0.17614064 -0.021480829 0.2789989
0002a0 17 68 7a 3e 9a da 95 3e e4 21 1d 3e d4 b1 cf bd
       0.2445377 0.29268342 0.1534496 -0.1014134
0002b0 1d 17 a5 bc 3f bc 3b 3d fb 7d be 3e 7e 42 02 3e
       -0.020152623 0.045833822 0.3720549 0.12720677
0002c0 e6 70 b7 bd 0a 9b 8a 3e fd a1 5c 3e 81 21 62 3e
       -0.089570805 0.2707141 0.21546169 0.22083093
0002d0 59 aa 53 3e 01 24 88 bd 7d 0f 19 3e fa 7f 50 3e
       0.20670451 -0.06647492 0.14947315 0.20361319
0002e0 e3 ff 4d 3e 95 86 74 3d 36 25 c2 3e 4e a8 a5 bb
       0.20117144 0.05969866 0.37919015 -0.005055464
0002f0 eb 4e b7 3d e4 4b aa 3e 71 5d 3a 3d d5 62 53 bc
       0.08950599 0.33261025 0.04549927 -0.012901981
000300 33 e8 da 3e 78 df 19 3e 2b d4 82 3e a6 02 00 3f
       0.4275528 0.15026653 0.25552496 0.5000404
000310 90 8d b5 3c 9f 7f c5 3d f5 73 dd 3d 8f 35 13 3e
       0.022162229 0.096434824 0.10813133 0.143759
000320 96 9e 98 3e e8 67 9d bd 67 fd 87 3e d2 b2 d2 bd
       0.2980849 -0.07685834 0.26560518 -0.102880135
000330 d6 7f 98 3c 91 5e 0c 3e b6 5b 01 3f 2f f4 4b bd
       0.018615644 0.13707949 0.50530565 -0.04979342
000340 1f 75 0d 3e e1 45 a5 3e d4 dd 8b 3e 48 a6 f7 3d
       0.1381421 0.32279876 0.2731768 0.120922625
000350 55 06 b9 bd 60 f2 81 3e 67 49 b2 3d 86 b2 0f bd
       -0.09034411 0.2538023 0.08705407 -0.035082363
000360 35 15 74 3e 36 8b 72 3e 50 e0 76 3c 64 4d f1 bd
       0.23836215 0.23685917 0.015068129 -0.11782339
000370 6a 5d 47 3e 43 8c 62 3e c3 f2 42 bc 11 cf 5e bc
       0.19469228 0.22123818 -0.011898699 -0.013599173
000380 76 ae 61 3e 7b d5 93 3e b5 7e eb bd 72 07 1d 3f
       0.22039208 0.2887381 -0.11498777 0.61339486
000390 6f 2d 01 3e f8 cb cd bd a8 d1 39 3e 2e 8e 8b bc
       0.12614988 -0.100486696 0.18146384 -0.01703557
0003a0 a7 45 42 3e a6 aa 06 bd a8 b7 c5 3d 58 6f c4 3d
       0.18971883 -0.032877587 0.0965417 0.0959155
0003b0 3d 4b db 3d 38 5f 23 be 6b 4a f9 3d 43 a0 ae 3d
       0.1070771 -0.15954292 0.12172397 0.08526661
0003c0 f3 b6 a3 3d 77 dd bb 3d 23 7f 4f bd bf e5 aa 3d
       0.07993879 0.091731004 -0.050658356 0.08344602
0003d0 8f 1a 67 3d e2 73 44 3d 8a bd 18 3f 82 4a 47 3e
       0.056421813 0.047962077 0.59664214 0.19462016
0003e0 36 2c df 3d 46 8a 0a 3e 43 f3 e1 bd 26 0b 93 3e
       0.108971044 0.1352931 -0.110327266 0.28719443
0003f0 35 a2 a0 3e 89 95 f8 3e 2f 0b 6e 3e 77 30 b4 3e
       0.31373754 0.48551586 0.23246454 0.35193226

encoder.2.bias f4 [16]
000000 f4 41 44 3f ac 22 c4 3e 4d 93 1b 3e 9d 01 00 3e
       0.76663136 0.38307703 0.1519291 0.12500615
000010 b1 65 e0 3d ec 5c 3b 3f 99 c4 df 3e e8 5c f7 3e
       0.10956896 0.7318866 0.4370468 0.4831307
000020 4f 88 1f 3f db af 0e 3f c6 8e 0d 3f b9 f8 36 3f
       0.62317365 0.55737084 0.5529598 0.7147327
000030 ae 49 14 bf e8 c5 45 3f 8e 29 fb 3e 67 53 08 3f
       -0.57924926 0.77255106 0.4905514 0.5325226

encoder.4.weight f4 [8, 16]
000000 84 59 bf 3e 19 b6 02 3f 5f f4 18 3d 16 a3 8a 3e
       0.37372983 0.5105911 0.037342425 0.2707755
000010 45 35 f1 3e c2 e5 d1 bd 41 96 65 3e b7 26 06 3f
       0.47110954 -0.10248901 0.22420599 0.52402824
000020 61 87 23 be da 2e 0b 3f 3a fc 89 bd 90 14 0f 3f
       -0.15969612 0.54368365 -0.067375615 0.5589075
000030 42 f9 c1 3d c2 79 34 3f cb b5 3b 3e 99 f4 35 3e
       0.0947137 0.7049829 0.18331067 0.17769088
000040 78 b5 8a bd 94 16 23 3e 7f 34 4c 3e 46 ee 9f bd
       -0.06772894 0.15926582 0.199419 -0.07809119
000050 d5 e9 2e be 12 06 21 3e 46 ac 10 3d 16 33 ff 3d
       -0.17081387 0.15724972 0.035320543 0.12460916
000060 de 93 6b 3e a4 67 57 3e 58 78 91 3e 71 df 56 3e
       0.23005626 0.2103563 0.28412127 0.20983674
000070 a2 4c b3 be 5b 64 e3 3e 92 6f 1f bd 1f 6b 38 3e
       -0.35019404 0.44412503 -0.03892476 0.18009613
000080 f3 66 ce 3d da 3c 5b 3e 42 cd 90 be 2d 4f 43 3d
       0.1007823 0.21409932 -0.282816 0.04768293
000090 87 0d 8c 3e d3 d7 a3 3e e7 b6 f4 bc 43 18 49 3e
       0.2735407 0.32000598 -0.02987237 0.19638161
0000a0 2e 9f d6 3e 9e 30 90 3c 6d ca 8c 3e 77 f2 e6 3d
       0.4191832 0.017601307 0.2749819 0.11276715
0000b0 ec bd e0 be 5c 8a ea 3e 4f 1f 02 3e 3d ba 3b 3e
       -0.438949 0.45808685 0.12707256 0.18332763
0000c0 6e 8d 23 bd 24 8c 68 bd a1 09 3c 3c a7 9b 3a 3e
       -0.0399298 -0.056774274 0.011476905 0.18223439
0000d0 e9 fc 58 be 33 7e aa 3c 16 5f a3 3e ff f4 37 3d
       -0.21190228 0.02081213 0.31908482 0.04491138
0000e0 94 62 9b 3e 63 3d 08 be 7c df d2 3e bd e3 18 3f
       0.30348647 -0.13304667 0.4118613 0.597225
0000f0 fd 6c 31 be c3 88 1e 3f 99 f4 94 3e 95 d9 52 3c
       -0.17326732 0.6192743 0.29092863 0.012869258
000100 be 1f 6b 3e b4 e8 ba 3e c3 07 ca 3d 53 85 76 3e
       0.22961327 0.36505663 0.09864762 0.24074297
000110 fa 97 da bd 01 43 4a 3e ab ed 89 3e 4a ae 54 3e
       -0.106735185 0.19752122 0.2693914 0.20769611
000120 e2 5b f8 3e e2 9e 96 bd 4c eb ae 3e aa 50 0f 3f
       0.485076 -0.07354523 0.34163892 0.5598246
000130 6e 5a df be f6 15 48 3e 3b 01 c6 3e 21 d7 50 3e
       -0.4362368 0.19539627 0.38672814 0.20394565
000140 28 c5 83 3e 7b 2c 28 bd 65 88 28 bc 8d 64 f4 bb
       0.25736356 -0.041058045 -0.010286425 -0.0074582756
000150 f1 bd 14 3e 0b 8c 9f 3e 1c e6 d4 3d 80 3d 33 3d
       0.14525582 0.31161532 0.103954524 0.043759823
000160 60 17 dc 3e ef e7 1c 3e 68 ec e4 3d 65 e5 cc 3d
       0.42986584 0.1532285 0.111779034 0.10004691
000170 d8 e8 bb be 42 7c 7e 3e 3f 03 5a bd ed 57 81 bd
       -0.36701083 0.24852088 -0.053225752 -0.06315599
000180 e8 b3 4b 3d 06 f0 47 3d 80 2f 47 bd 9b 9b 95 3e
       0.04973212 0.04881289 -0.048629284 0.2922028
000190 a9 e9 7d 3e 70 98 af 39 56 2c 05 3e 82 1f 0c 3e
       0.24796166 0.00033492176 0.13005194 0.13683894
0001a0 d7 4c 13 be cd 88 7c 3c 2b 60 ba bd 96 1d 06 be
       -0.14384781 0.015413475 -0.09100374 -0.13097224
0001b0 ca 54 80 3e 3c 9d cf bd 46 5b 8b 3e af 5f 6c 3e
       0.2506469 -0.10137412 0.27218074 0.23083375
0001c0 f7 49 c1 3e ec d2 c2 bd 22 84 25 be 87 ca 5a be
       0.37751743 -0.095128864 -0.16163686 -0.2136632
0001d0 e2 37 d6 3d b8 40 57 3d 92 22 3e be a1 df c4 3e
       0.104598776 0.052551955 -0.18567875 0.38451865
0001e0 f2 b5 5c 3d 58 d8 c7 3e 01 2b 4e be c4 1d 09 3f
       0.053884454 0.39032245 -0.20133592 0.53561044
0001f0 11 62 6b be d2 91 61 3f 5e be 55 3d dd 1e f0 3e
       -0.22986628 0.8811313 0.0521835 0.46898547

encoder.4.bias f4 [8]
000000 ba 4d 1c 3e 04 bd 42 3f ce ef 09 3f ce b1 08 3f
       0.15264025 0.76069665 0.5388154 0.5339631
000010 2d b4 c6 3d c6 75 19 3f fe 56 e4 be 9e 9d 2f 3f
       0.097023346 0.59945333 -0.4459762 0.6859988

attn_layer.0.weight f4 [1, 8]
000000 d0 41 4f 3f 4c 73 66 3e df a0 37 3e 56 aa 95 bd
       0.80959797 0.2250492 0.17932461 -0.073078796
000010 c5 d0 db 3e 64 e2 f2 3e 25 6a b8 bd f3 eb 66 3e
       0.42932716 0.47438347 -0.090046205 0.22550945

decoder.0.weight f4 [16, 8]
000000 cc bd f6 3b f5 60 d4 3d fc f2 87 3e 73 1e 8e 3e
       0.00752995 0.103700556 0.2655257 0.27757606
000010 01 96 83 3d 7e f3 41 3d 72 2e af bd f9 1f 4a bc
       0.06425095 0.047351353 -0.085537806 -0.012336724
000020 72 26 8f 3e b8 b2 07 3d 1d eb aa 3e be b8 52 be
       0.2795902 0.033129424 0.33382502 -0.20578286
000030 c1 63 8f bd 51 78 e1 bd 66 1c 4c 3e 9a 58 9f 3d
       -0.070014484 -0.11009277 0.19932708 0.07780571
000040 9d 44 39 be a0 dc 22 bc e2 7f 01 be 3c c9 75 be
       -0.1809258 -0.009940296 -0.1264644 -0.24002546
000050 02 c5 50 3e 40 0a 4f bc 4c e3 d5 3d 40 8f 7f 3d
       0.20387653 -0.012636721 0.10443744 0.062392473
000060 38 26 f6 3e f2 17 73 bd 14 33 05 3c 2d c5 d5 3e
       0.48076034 -0.059349008 0.008129854 0.41751996
000070 a1 33 99 3e 11 93 2b be 7e 60 94 3d d8 d5 8c be
       0.29922202 -0.1675532 0.07244967 -0.275069
000080 c2 12 07 3f 3f 14 81 be 16 55 8a 3d 1b f1 9b bd
       0.52763 -0.2521076 0.0675451 -0.076143466
000090 b5 38 86 bd dd 86 a1 bd 22 ea ba 3d 6a 30 5c 3e
       -0.06553785 -0.07887051 0.091266885 0.21502843
0000a0 ce 75 cf 3d 99 35 03 3f b4 bd 16 3e 8b aa 0f 3f
       0.10129891 0.5125366 0.14720803 0.561196
0000b0 ed e0 58 3e c6 36 af 3e 86 c2 c5 be 63 87 f3 3e
       0.21179552 0.34221476 -0.38624972 0.4756423
0000c0 5b c0 bb 3e 2c 00 56 be a6 ab be bd 45 1e 6a 3e
       0.36670193 -0.20898503 -0.09310083 0.2286311
0000d0 ad 25 b5 3e ba 50 a4 be 92 d8 65 3e ac 14 17 be
       0.35380307 -0.3209284 0.22445896 -0.1475398
0000e0 79 53 ce 3e 71 0e 8d 3e e1 f2 a3 3e 61 a6 97 3e
       0.4029806 0.2755008 0.3202124 0.29619125
0000f0 ec b6 09 be 1b f5 80 3e 22 78 da be f8 e3 f1 3e
       -0.13448685 0.25187 -0.4266978 0.4724424
000100 ac 9e df 3e f4 f7 a1 be fb 7d 9a 3d 5b b1 f0 be
       0.43675745 -0.31634486 0.0754356 -0.4701031
000110 43 02 c0 be 94 57 90 3e 45 4d 59 3e 59 0c f8 3e
       -0.37501726 0.28191817 0.21220882 0.4844692
000120 d4 e5 eb 3e fa 0f 61 be 79 5b 23 3e a1 90 5c bd
       0.46073782 -0.21978751 0.15952863 -0.053848866
000130 c5 fc 4c be 88 93 b3 3e 31 6b 7b 3e 5e 18 3c 3e
       -0.20018299 0.35073495 0.24552609 0.1836867
000140 96 ca 4d 3e 51 4e a0 bc 81 65 aa 3e bf fd b0 bd
       0.20096812 -0.019568594 0.33280566 -0.08642148
000150 49 7f cd 3c c5 8c ac 3e 54 98 d5 ba 39 9f 27 3e
       0.025085108 0.3370115 -0.0016296008 0.16369332
000160 76 b7 86 3e 96 12 02 be f6 13 bc 3d 42 44 93 bc
       0.26311845 -0.12702402 0.09183495 -0.017976884
000170 3a 33 dc bd e0 69 28 3e f3 42 69 be 7e b1 e5 3e
       -0.10751958 0.16446638 -0.22779445 0.44861978
000180 b4 76 e8 3d 4a 62 b1 be cd 05 9b be 42 1d 11 be
       0.11350766 -0.346453 -0.30277863 -0.14171317
000190 6a c6 ac 3e 1a c5 ac 3d 90 ba f1 3b 2d 41 f8 3d
       0.33745128 0.08436032 0.0073769763 0.12121806
0001a0 65 9b fb 3e 15 b5 91 3d 73 ab 30 be 31 5f 81 3e
       0.49141994 0.07114617 -0.17252903 0.25267938
0001b0 bc 39 58 be 8b 5c ab bd 09 cd 71 3e 9d 27 31 3d
       -0.21115774 -0.083672605 0.23613371 0.04325067
0001c0 0b 9c 2d bd 1a 35 8d 3e aa 41 c9 3e ce b3 c8 3e
       -0.042385142 0.27579576 0.3930791 0.3919968
0001d0 67 0a bf 3e ae 1f cd 3e 97 1b 71 bd 52 00 0c 3e
       0.37312624 0.40063232 -0.058864202 0.13671997
0001e0 f4 77 5a be 43 13 d5 bd 22 a4 ce 3e 46 9b fa 3e
       -0.21334821 -0.104040645 0.40359598 0.4894659
0001f0 44 f6 bf 3e e0 13 cb 3e e8 b3 48 bd 92 c6 a8 be
       0.37492573 0.396636 -0.048999697 -0.32963997

decoder.0.bias f4 [16]
000000 64 fa ee bd e4 5a d3 3d 98 08 3e bd 7f dc 7a be
       -0.11668852 0.103200704 -0.046394914 -0.24498175
000010 07 92 69 3e 3b 8f 77 3f cb ab c8 be ad 08 ee 3e
       0.22809611 0.9670293 -0.39193568 0.46490994
000020 18 51 9b bc a8 44 11 be bd 1f f2 3e 76 2c 6c 3e
       -0.018959567 -0.14186347 0.4728984 0.23063836
000030 d3 00 dd be 9f fc 3e bd 86 2c 98 3e 42 58 66 bd
       -0.4316469 -0.046627637 0.2972147 -0.056236513

decoder.2.weight f4 [32, 16]
000000 1a ba 9f bd ef db 6a bd a8 62 79 bd 5b 76 8b 3e
       -0.07799168 -0.05733865 -0.0608851 0.27238736
000010 b5 3e 8e 3d 94 cd 73 bc 12 f3 7f bd 45 3e 5e 3e
       0.06945554 -0.014880557 -0.06248767 0.21703441
000020 46 b0 84 be e4 0c b8 bd 35 60 1c 3e 72 63 9c bd
       -0.25915736 -0.08986834 0.15271075 -0.07636155
000030 8b 46 29 3e 1b 94 3c 3e 97 c3 08 3e 9d 89 17 3e
       0.16530816 0.18415873 0.13355862 0.14798589
000040 a4 65 9c 3e 10 ab 4b 3c 00 0a a7 bb e8 93 83 3e
       0.30546296 0.012430921 -0.0050976276 0.2569878
000050 c3 16 c7 be 00 22 99 3e 64 1b e9 3d 7f 69 85 3e
       -0.38884553 0.29908752 0.113821775 0.2605705
000060 98 e5 93 be f2 01 69 bd db 26 2a 3c 2c 8a c8 3c
       -0.28886104 -0.05688662 0.01038524 0.024479948
000070 7c 34 77 bb 18 12 1f be 71 78 02 3e 07 ef bf 3e
       -0.0037720492 -0.15534246 0.12741257 0.3748705
000080 9a ea 19 3e 08 62 1e be 56 7f 71 be 02 d0 3d 3e
       0.150309 -0.15467083 -0.23583731 0.1853638
000090 a7 bf 23 3e b9 ae 63 3e ab 26 94 ba 9e 83 a2 3d
       0.15991078 0.2223462 -0.0011303028 0.0793526
0000a0 4a db 54 be 06 ba c6 3d 12 4a 27 3e 2c 8a 43 3e
       -0.20786777 0.0970345 0.1633685 0.19095677
0000b0 a7 12 5e be 3c cf 89 3b 7f a5 ef bd f8 32 d6 bd
       -0.21686803 0.0042056125 -0.11701488 -0.1045894
0000c0 ea 4a a7 3d 8b 9d e3 bd 96 27 66 be 04 22 70 bd
       0.081685856 -0.11114033 -0.22476038 -0.05862619
0000d0 09 56 08 be db 72 76 3e 8f 1e b4 be ef 4a 13 3e
       -0.1331407 0.24067251 -0.35179564 0.14384054
0000e0 f7 17 0e bd fa c9 44 3e c1 7d 3d 3d bf 9d 00 bd
       -0.034690823 0.19217673 0.046262506 -0.03140044
0000f0 74 f4 7f be 1e b7 43 bc db a5 60 3e b5 48 78 3e
       -0.24995595 -0.011945514 0.21938269 0.24246486
000100 bd a4 24 3c 3b e2 66 3e 30 08 d8 3c 44 05 50 3d
       0.010049042 0.22547238 0.026371092 0.05078627
000110 af 84 62 bd 49 a5 44 3d 63 57 c3 bd a3 f9 77 3e
       -0.05530232 0.04800919 -0.09538152 0.24216323
000120 c4 cb 2c 3e ad 04 cb 3d 75 fc 88 3e 7a 4b 8e bc
       0.16874605 0.09913001 0.2675511 -0.017369974
000130 59 4a 58 be 60 8e 8e bd 01 ae 0e bd b2 c3 1d be
       -0.21122111 -0.069607496 -0.03483391 -0.15406683
000140 9b a2 85 3e 03 1a 85 3e 74 ca cb bd 78 00 52 3e
       0.2610062 0.25996408 -0.09950724 0.20507991
000150 7e 64 e0 bd 9f c4 9e 3e 62 d5 30 be 45 00 5f 3d
       -0.10956667 0.31009385 -0.17268899 0.054443616
000160 a6 c7 b9 be 51 23 80 3d 37 8c a1 3d 80 c4 20 3d
       -0.36285132 0.06256736 0.07888072 0.039249897
000170 5e c4 a9 bd 90 98 a3 bd c8 fd 6f 3e 62 e6 64 3d
       -0.08289407 -0.07988083 0.23436654 0.055883773
000180 cd a8 32 be 0a 0a 3b 3e de c8 31 be 92 e8 b6 bd
       -0.17447205 0.18265548 -0.17361781 -0.08931078
000190 00 b2 46 3b a7 dc ef 3d 6c e6 d2 bd 5c 3d c8 bd
       0.0030318499 0.11712008 -0.10297856 -0.09777328
0001a0 5e 4b 7e 3e f2 59 28 be de 8f 1c be 6f f9 6f be
       0.24833438 -0.16440561 -0.15289256 -0.23434995
0001b0 3e fc 06 be 49 60 f8 bd 20 9f df 3d 49 fc 33 3d
       -0.1318216 -0.1212774 0.109190226 0.04394177
0001c0 c9 40 b6 bb 66 90 a1 3e 20 87 db bd f9 83 1f be
       -0.005561922 0.3155548 -0.107191324 -0.15577687
0001d0 ab 9a 23 3e 75 09 ac 3e e4 cc 60 be af cb cc 3d
       0.1597697 0.33600965 -0.2195316 0.09999787
0001e0 9c 90 cb 3e 45 70 48 3e 91 3e ac 3e fd 70 a5 3c
       0.39758766 0.19574077 0.33641484 0.020195479
0001f0 c5 ab b4 bc 29 48 8f bd b7 13 1a be e7 a8 b1 be
       -0.022054562 -0.06996185 -0.15046583 -0.34699175
000200 0a a0 9a 3e 59 e3 fe bd 30 7c 03 be ca 75 9a 3e
       0.30200225 -0.12445707 -0.12840343 0.3016799
000210 df 6f 54 be e6 9f 59 3e 12 08 d1 bc 08 78 e6 ba
       -0.207458 0.21252403 -0.025516544 -0.001758338
000220 89 ef ac be 1a 92 31 3e cf b4 80 3e f8 29 35 be
       -0.337765 0.1734089 0.25137946 -0.17691791
000230 6a 47 92 bd ab 5a 23 be fd b8 88 3e 20 b7 f3 3e
       -0.071425274 -0.15952556 0.26703635 0.4760065
000240 92 05 44 3d 64 d2 60 3e 50 8f cc 3c 7b 48 b0 3e
       0.047856875 0.21955258 0.02497068 0.34430298
000250 16 e4 0b 3e 18 ae 01 3e 45 83 b9 3e 7e a9 4f be
       0.13661227 0.12664068 0.36232963 -0.202795
000260 e1 28 35 bd 9c 4d 57 3e 15 db fa bd 34 3f 15 3e
       -0.04422844 0.210257 -0.12248818 0.14574891
000270 2e e7 9b bd a8 07 9b 3e 44 03 20 be 4b 9b de 3d
       -0.076124534 0.3027928 -0.15626246 0.108694635
000280 a5 e6 53 3d bd 9b 32 3e f8 5b da bd ae 33 26 3e
       0.05173363 0.17442222 -0.10662073 0.16230652
000290 5f 78 0d 3e b6 ab 9f bd 79 cb 1b 3e c9 bc 9e 3e
       0.13815449 -0.07796423 0.15214337 0.31003407
0002a0 be f9 4a 3e 74 a2 2c 3e 8f f3 23 bd 3a c8 c4 bd
       0.19821832 0.16858846 -0.040027197 -0.09608503
0002b0 c3 91 e1 bc 3b 44 1f be 41 99 84 3e fc bc 9b be
       -0.027535325 -0.15553372 0.25898173 -0.3041762
0002c0 f9 11 51 3e c5 5d 97 3d 80 4a 69 3b 7e 0e 84 3e
       0.20417012 0.07390932 0.0035597384 0.25792307
0002d0 0d 30 74 3e 68 1b e7 3b 8d d6 7b 3e 52 40 f3 bd
       0.23846455 0.0070528276 0.24593563 -0.118775025
0002e0 8b d1 4f 3e cc 7f eb 3c 37 af 0b 3e d8 0b 2d 3c
       0.20294778 0.028747462 0.13641058 0.010561906
0002f0 ee 1a 30 be 6b c5 09 be 5e d8 55 be cf e1 6e be
       -0.17197773 -0.13454215 -0.20883319 -0.23328327
000300 8d 69 9e 3e f4 24 b8 3e 04 5a c2 3d 9c 6f d0 3d
       0.30939904 0.35965693 0.09489825 0.10177538
000310 2f 94 4f be b6 96 eb bd 74 e5 42 be d5 4a 24 3d
       -0.20271371 -0.11503355 -0.19032842 0.040110428
000320 69 17 f3 3d d3 8a 84 3e a5 92 b1 3e 91 37 65 3d
       0.118696995 0.25887164 0.34682193 0.055961195
000330 b6 86 1b 3e d8 64 ae 3e e0 06 9f 3e 91 36 65 bd
       0.15188107 0.34061313 0.31059933 -0.05596024
000340 98 40 97 bd af f2 ab 3e 00 1c dd 3c 8b 5f 63 3e
       -0.07385367 0.3358359 0.02699089 0.22204416
000350 3e cf e2 3d 68 6d 42 3e d0 b3 16 3e e2 6c 9a 3d
       0.110746846 0.18987048 0.1471703 0.07540299
000360 90 98 ec 3d 0e 88 63 3e 14 fd 80 3e 63 1c 4e 3e
       0.115525365 0.2221987 0.25193083 0.20128016
000370 9f d3 82 bd a6 b3 14 be bd 9b 1d be d5 19 62 3e
       -0.0638802 -0.14521655 -0.1539144 0.22080167
000380 b8 ce ed 3c 3f fc af 3e 4c 5f 31 3e be 97 ba 3e
       0.029029235 0.34372136 0.17321509 0.36443895
000390 5d 8b 4f 3e 7b 94 04 3b c7 98 65 3e 1d 3d 82 3e
       0.20268007 0.0020230103 0.22421561 0.2543725
0003a0 f9 e3 b6 bd d9 8e 6b 3d 96 e3 10 be 97 36 46 3d
       -0.08930201 0.057509277 -0.14149317 0.048391905
0003b0 e6 c7 95 3c d4 f1 ce 3e c0 82 75 be ca a7 78 bd
       0.018283796 0.40418875 -0.23975658 -0.06070689
0003c0 21 0a 95 3e fd 49 f8 3c d4 4f 45 3e e5 7e c3 3c
       0.2910929 0.030308718 0.19268733 0.023864219
0003d0 59 ee ee bc 44 21 6d 3e b7 76 3d 3e b1 a4 79 3e
       -0.029166387 0.23157221 0.18502317 0.24379231
0003e0 fa 55 00 be 80 14 ea 3d 02 04 79 3e 4e ec 42 3e
       -0.12532797 0.11429691 0.24317935 0.19035456
0003f0 83 34 b0 bd 80 7b e4 3d ad f0 98 3e 71 25 3a bd
       -0.08603766 0.11156368 0.2987112 -0.045445863

decoder.2.bias f4 [32]
000000 71 d2 01 3f 39 e2 45 3f c8 d6 03 3f ba 70 09 3f
       0.50711733 0.77298313 0.51499605 0.5368763
000010 41 1d 6a bd 72 eb e6 be bc 25 37 be ec 23 4f 3f
       -0.057156805 -0.45101506 -0.17885488 0.8091419
000020 06 0b a9 3e ba b7 dc be c8 8a 49 bd d3 98 28 3e
       0.33016223 -0.43108922 -0.049204618 0.16464548
000030 23 d1 cf be 3e c3 a5 3d 0c 1e d6 be 2e fb e8 3d
       -0.40589246 0.0809388 -0.418198 0.11376034
000040 f5 35 28 3f 7a 4c 40 3f 8c 9a 56 be 40 53 6a bd
       0.6570733 0.75116694 -0.20957392 -0.0572083
000050 d0 f5 d2 3e 88 e3 8c 3e 33 1f 4d 3f e6 cf e0 be
       0.41203165 0.27517343 0.8012573 -0.43908614
000060 b4 7b 13 3e b4 60 d6 bd 6c 5c 8c 3f 11 2e c2 bd
       0.14402658 -0.104676634 1.0965705 -0.09481443
000070 34 47 fa bd a8 c8 8c bd a6 3b f6 3e c1 56 d4 3e
       -0.12220612 -0.0687421 0.48092383 0.41472438

decoder.4.weight f4 [3750, 32]
000000 52 46 e6 bd d8 89 7d be 5d 51 35 be 15 8a 76 bc
       -0.11243881 -0.24759614 -0.17706819 -0.01504757
000010 da 27 da 3b 22 22 69 3b 20 1d 15 be 51 27 9a bc
       0.0066575827 0.0035573323 -0.14561892 -0.018817576
000020 2e 52 84 be 64 e4 be bd 03 eb 53 bd 7b 34 ed ba
       -0.25843948 -0.09320906 -0.051737797 -0.0018097305
000030 b8 15 81 bd 24 a2 2e be 59 f5 53 bc 65 7f 93 be
       -0.06302971 -0.17054039 -0.012936913 -0.28808132
000040 ad 1e 40 3c 09 29 55 3d 14 6d 48 bd 38 b9 21 be
       0.011726064 0.052041087 -0.04893215 -0.15793312
000050 c0 85 0f 3d 86 21 41 be e1 c5 84 bd 85 70 83 be
       0.035039663 -0.18860444 -0.06483055 -0.25671783
000060 4b 19 cb bd f7 f3 0a 3d 05 f2 78 be 34 08 f7 3d
       -0.099169336 0.03392407 -0.24311073 0.120621115
000070 33 d8 bb bd 3a e0 65 be a5 4f 14 3c 4a 64 92 be
       -0.09172096 -0.22448817 0.009052192 -0.2859214
000080 13 8f 8a be 57 6e 8d bd 2c d4 af 3b b3 79 8a be
       -0.27062282 -0.06905811 0.005365869 -0.27045974
000090 2b 30 17 be 9a 5b 3e 3d 66 66 ff bd 9f 71 1c be
       -0.14764468 0.046474077 -0.12470703 -0.15277718
0000a0 f3 54 e5 3c 2c 2f 18 3e bb f2 2c be 50 41 a1 bd
       0.027994609 0.14861745 -0.1688947 -0.078737855
0000b0 3b d0 bf bd 9c a4 29 be 92 23 2d 3d 11 60 ef bd
       -0.09365889 -0.165667 0.04227025 -0.11688245
0000c0 0a f5 3e bb 08 7a 66 be 5c 92 26 be c5 33 04 3e
       -0.0029137754 -0.22507489 -0.16266769 0.12910374
0000d0 50 5c f5 bd 2c d7 05 be f2 ee 46 be a6 d5 ec 3a
       -0.11980498 -0.13070363 -0.19427088 0.0018069043
0000e0 62 2f 9e be 96 34 32 3d 23 6f 4f 3d 57 6a 0a bd
       -0.30895525 0.04350718 0.050643098 -0.03379282
0000f0 07 0a 05 bd fb ad 67 be 3d 06 51 bb 23 48 45 be
       -0.032480266 -0.22624962 -0.0031894587 -0.19265799
000100 45 90 ab 3d a0 8c 0a 3e f0 cd c8 bd 85 c1 c3 bc
       0.083771266 0.13530207 -0.098049045 -0.023895988
000110 08 b1 a8 3c 10 a1 28 3e e3 9c ec 3d 13 fd d1 be
       0.020592228 0.1646769 0.11553361 -0.41013393
000120 b6 1f 6a bc c4 d7 b2 be 9f 7c 75 3c d6 d2 6d be
       -0.014289787 -0.3493024 0.014983325 -0.23224959
000130 0a 15 14 be a8 20 f4 bd 74 4f 32 be 21 e5 43 be
       -0.14461151 -0.11920291 -0.17413121 -0.19130374
000140 83 56 aa 3d 39 96 ce bd 18 2f f1 bc 4e cd 13 be
       0.08317282 -0.100872464 -0.029441401 -0.14433786
000150 1a e5 af be 31 93 91 be 6e 60 0a 3c 58 16 48 3d
       -0.34354478 -0.2843261 0.008445842 0.048849434
000160 47 ec 08 be 43 02 e4 bd 4c 5e 00 bd 2d 0d 02 3d
       -0.13371383 -0.11133244 -0.03133993 0.031750847
000170 0f 57 63 be 0a ad 07 3e a4 bd d2 3d e7 15 66 be
       -0.22201179 0.13249603 0.10290077 -0.22469293
000180 12 7d af 3c 77 a0 88 be 3e 89 80 3a 8e f5 94 3d
       0.021421943 -0.26684925 0.0009806526 0.07273398
000190 ba 54 e2 bd 7b c1 5e bc 65 d4 04 bc 12 e8 65 be
       -0.110513166 -0.013595934 -0.008107279 -0.22451809
0001a0 1e eb 1e 3c f8 2f ee 3d a0 e5 bc bd e8 92 b6 bd
       0.009699611 0.11630243 -0.09223485 -0.08914739
0001b0 d3 6a 93 be c1 9b bd bb 8e 1a 5a 3c 73 59 89 be
       -0.28792438 -0.0057863896 0.013311995 -0.26826057
0001c0 9f e9 76 be 13 40 6c be a3 52 17 3e 1e b2 1c be
       -0.24112557 -0.23071317 0.14777617 -0.15302321
0001d0 c4 e0 f0 bc e2 86 22 be 68 a7 5b be 45 e5 c4 bc
       -0.029404052 -0.15871766 -0.21450579 -0.024035105
0001e0 91 35 29 be cf 10 64 bd 69 ff b6 3d e6 d2 07 3e
       -0.1652434 -0.055680092 0.08935434 0.13264045
0001f0 db 9d a3 3c 12 d2 83 be 3a 1e 77 be b9 d4 89 bd
       0.019972732 -0.25746208 -0.24132624 -0.06730027
000200 a3 3a aa bd 6c 80 25 be b7 5b 1e bd 60 e1 49 bd
       -0.08311965 -0.1616227 -0.038661685 -0.0492872
000210 ca 75 90 be a9 70 0a be 58 dc fe 3d 71 c3 81 bc
       -0.28214866 -0.13519539 0.12444371 -0.015840264
000220 f1 29 0a be 38 4f 8d bd 37 5e 96 be 8a fd 26 3e
       -0.13492562 -0.068998754 -0.29368755 0.16307655
000230 62 ed 08 be ee 89 c4 bc 99 fd ef bd ea cf c1 bd
       -0.13371804 -0.023991551 -0.11718292 -0.094634846
000240 bc 42 3d 3d af 95 f1 bd aa 39 a5 3d 78 27 3e bd
       0.04620622 -0.11796128 0.08067639 -0.04642436
000250 b3 12 28 be f5 e5 5b bd a1 c9 51 bd 5a 8c 5f be
       -0.16413383 -0.0536861 -0.05121768 -0.21830884
000260 07 4f 05 be 3b 87 0e 3e e2 67 eb bb 60 e7 06 3e
       -0.13018428 0.13918774 -0.0071840147 0.131742
000270 f4 e2 9a bd 39 00 56 bd ef 2c 9f bd b1 4e 42 bd
       -0.07562819 -0.052246306 -0.07772242 -0.047438327
000280 16 c6 0a be 37 56 86 3c 45 ea 25 be eb e0 16 bd
       -0.13552126 0.016398532 -0.16202648 -0.036835592
000290 05 c1 e6 bd ee 59 f9 bd 93 ea a6 bc 3b 9a c9 be
       -0.11267284 -0.12175356 -0.020375526 -0.3937548
0002a0 41 de 58 3e f8 7a c5 be 49 9a c0 bb ad 07 31 be
       0.21178533 -0.3857038 -0.005877767 -0.17288084
0002b0 a9 08 d0 bd 47 eb 57 3d 1f a2 58 be 39 74 67 bd
       -0.10157902 0.052714612 -0.21155594 -0.056507323
0002c0 6d 6e 24 3c e5 01 c6 3d f9 6d 08 3e 09 1c 03 3e
       0.010036093 0.0966833 0.13323201 0.12803663
0002d0 01 14 11 bf 73 7a e2 bd 5e e8 44 be 4c f9 9f 3d
       -0.5667115 -0.110585116 -0.19229266 0.078112215
0002e0 b7 64 0f be 25 5f cf bd 87 00 2b 3c 42 26 16 bd
       -0.14003263 -0.10125569 0.010437137 -0.03665758
0002f0 47 a5 53 bd 0b 30 33 3e 1a 76 76 3d bf 67 31 be
       -0.051671293 0.17498796 0.060171224 -0.17324732
000300 b1 54 b6 bd 26 7d 83 be 6b 57 12 be 05 ef 19 bb
       -0.08902872 -0.25681418 -0.1429116 -0.0023488414
000310 0c c0 85 bd 15 1b 9a be 7e a4 57 bd ac c9 23 bc
       -0.06530771 -0.30098787 -0.052647106 -0.009996813
000320 8f 58 ee bd c0 2d d3 bb 94 72 8f be ad 55 c7 3d
       -0.11637985 -0.006444663 -0.28017104 0.09733138
000330 a9 1b 5a bd 56 87 3c be b7 81 6d be 6c 7e 0f 3d
       -0.053249035 -0.18411002 -0.23194014 0.035032675
000340 c1 0c 34 be a7 37 89 bd 04 f1 10 bd ce d2 f3 3d
       -0.1758299 -0.06700068 -0.0353861 0.11905442
000350 49 6a 1f be ce 9e 95 be 10 34 06 bd 22 e7 07 bd
       -0.15567888 -0.2922272 -0.032764494 -0.03317941
000360 09 92 5c be d4 ce 13 3d 24 c9 ca bd 15 30 89 bc
       -0.21540083 0.03608592 -0.09901646 -0.01674656
000370 4a ed bd bc dd 95 20 be 34 46 c9 bd be 46 b4 3c
       -0.023184437 -0.15682168 -0.09827843 0.022006389
000380 5d 0b 0d be 95 81 3a be fe 31 f2 bd aa 25 75 be
       -0.13773866 -0.18213494 -0.118259415 -0.23940149
000390 55 19 6f 3b 30 9f 70 bd 4a 33 35 bd ed 75 7d be
       0.0036483605 -0.058745563 -0.044238366 -0.24752016
0003a0 27 78 43 be e7 3b 8b bc f7 39 76 be 6f 33 d1 3d
       -0.19088803 -0.016996337 -0.2404555 0.10214888
0003b0 c2 92 56 bc e0 81 29 be c0 3d a0 bd 5c 5f 78 3c
       -0.013096513 -0.1655345 -0.07824278 0.015159454
0003c0 3a d2 1b bc 26 d4 c7 3c 9e 41 ac 3d a4 ad 75 3d
       -0.009510571 0.024393152 0.08410953 0.05998005
0003d0 bf 82 a2 bd b1 24 68 be 10 7c ac bd 11 a0 3f bd
       -0.07935094 -0.22670247 -0.084221005 -0.04678351
0003e0 35 96 13 be a7 ad c9 bc 48 67 ed bd 91 9f 08 3e
       -0.14412768 -0.024618937 -0.11591965 0.1334212
0003f0 45 cc ee 3a 2a 1a 84 be 10 d3 1e bd b7 11 90 be
       0.0018218836 -0.25801212 -0.038775504 -0.28138515

decoder.4.bias f4 [3750]
000000 91 6c f2 bb d7 ed 4a 3d a3 76 4b bd b3 32 3d 3d
       -0.007398196 0.049543228 -0.049673688 0.04619093
000010 48 ff 6c be c8 3f 0b 3d 04 ce 67 bd 7d 42 27 bd
       -0.23144257 0.033996373 -0.056592956 -0.040834893
000020 d6 09 e0 bd 09 65 0a 3d a3 66 53 bc 25 94 48 be
       -0.10939376 0.03378776 -0.0129028885 -0.19587763
000030 c9 ef 60 bd 7e cd 53 3d c0 bb bc be 6a 17 0f 3c
       -0.054916177 0.051709644 -0.36861992 0.00873361
000040 06 35 ed bb 2d 4d 33 be cf 78 a2 3d c0 a9 91 bd
       -0.007238987 -0.17509909 0.07933199 -0.07112455
000050 c6 05 a8 be 94 0f 4e 3a 73 50 16 3a c9 03 46 be
       -0.32816905 0.00078605977 0.0005734034 -0.19337381
000060 52 cb 32 be dc 66 82 3c de db 82 be 4b 5b 8d bd
       -0.17460373 0.015918188 -0.2555837 -0.069021784
000070 3d 26 a3 3c 4a 21 51 be f6 bf 6d bc 57 c1 c9 3c
       0.019915694 -0.20422855 -0.014511099 0.024628324
000080 95 94 b0 be dc ec f7 3c 13 95 5e be a4 19 7d be
       -0.3448836 0.03026431 -0.21736555 -0.24716812
000090 ca 29 7a bd 3d 0f 2f be d9 5a 6d be 98 7f ac bd
       -0.06107501 -0.17095657 -0.23179187 -0.08422774
0000a0 a1 a6 cc bd 04 45 b1 bc 3c 4b cb 3c 75 d2 35 be
       -0.099927194 -0.021639355 0.024816148 -0.17756064
0000b0 74 c4 3d bb dd 20 f5 3c 14 62 6c bd 59 29 16 be
       -0.0028956207 0.029922897 -0.057710722 -0.1466421
0000c0 24 a4 a5 3c a3 25 e4 bd 17 0c d5 bb 0d 63 16 bd
       0.02021987 -0.11139991 -0.0065016854 -0.036715556
0000d0 c3 08 17 3c 41 64 3b be b1 64 4a be 61 c8 d6 bd
       0.009218398 -0.18299963 -0.19764973 -0.10487438
0000e0 5d f1 2f be 1d ec 91 3c c9 bc 21 be f2 6c 8d be
       -0.17181917 0.017812783 -0.15794672 -0.2762218
0000f0 b2 b1 19 be 03 96 06 3e 79 aa 84 bd 12 78 34 be
       -0.15009192 0.13143162 -0.064778276 -0.17623928
000100 65 ac ed 3d 37 38 66 bc 7d c2 4f 3d 9e 51 4e bd
       0.11605147 -0.014051489 0.050722588 -0.050370805
000110 f5 97 8b be 6c 37 de 3d 56 83 3b 3d d6 ab 54 be
       -0.27264372 0.10850415 0.04577955 -0.20768675
000120 e2 19 9b 3d 74 7b 17 be 09 bb 6f be 9e 6d 06 be
       0.07573296 -0.14793187 -0.23411192 -0.13127753
000130 cb 8d 6d be 31 98 c9 3c 98 4e b8 bd 4b 31 57 3a
       -0.23198621 0.024608703 -0.089993656 0.00082089443
000140 b7 70 5f be 35 14 65 bc cd e7 fc bc 93 2e 8f be
       -0.21820341 -0.0139818685 -0.03087225 -0.2796522
000150 98 ad 09 be e8 12 47 be e3 4f 2d be 9a 06 20 3b
       -0.13445127 -0.19440806 -0.16925006 0.0024417997
000160 9b 66 ac 3d c2 81 9e bc f0 db 61 be 00 27 98 3d
       0.08418008 -0.019348983 -0.22056556 0.07429314
000170 e5 e5 89 3c c9 38 aa 3d 11 84 13 3d dc 6e 98 be
       0.016833255 0.08311612 0.03601462 -0.2977208
000180 b4 39 0d bd 1c 10 d6 bd 0f ef 09 bd 14 6a c0 bd
       -0.034478858 -0.10452291 -0.03367525 -0.09395233
000190 f5 03 02 be 51 e9 01 bd f9 a5 a2 bd fc ea 07 be
       -0.12696822 -0.03171665 -0.07941813 -0.13273233
0001a0 1e 37 94 be 05 a5 04 be 6e 45 90 3d 83 3d 99 bd
       -0.289483 -0.12953575 0.07044493 -0.074824356
0001b0 d2 9c b0 ba af 49 fa 3c 3b 0b 94 be cc 79 5c be
       -0.001347447 0.030552713 -0.28914818 -0.21530837
0001c0 58 c4 27 3c df ec 07 be 87 4a f2 bc 69 b4 81 be
       0.010239683 -0.13273953 -0.029576553 -0.25332955
0001d0 e3 f3 53 be f2 34 c2 bd 93 83 99 bc 25 9f bb bd
       -0.20698504 -0.09482755 -0.018739497 -0.09161214
0001e0 84 f2 35 3d 0d 4c 15 be 67 13 4a bd e7 f7 1c 3d
       0.044420734 -0.14579792 -0.04933491 0.038322356
0001f0 aa 17 90 bc 97 d0 e3 bd a1 a1 9a 3d 68 8f 2f bd
       -0.017589409 -0.1112377 0.075503595 -0.042861372
000200 0d 5a cf bd 33 ff b0 3d f3 3b 07 bd 5e 5d 59 be
       -0.10124598 0.086424254 -0.033016156 -0.21227023
000210 6e b2 a2 3d 6e c0 3c bd 03 af c2 bd 64 9e 11 bd
       0.07944189 -0.046081953 -0.09506037 -0.035551444
000220 6e db 61 bd 7c 8f 9c bd 02 6a 91 3d f1 bb e9 3c
       -0.055140905 -0.07644555 0.071002975 0.028532
000230 ed f8 a3 3c ab 24 23 be 95 d7 5d be 76 25 02 3d
       0.020016158 -0.15931956 -0.2166427 0.031774007
000240 ec 0f 1c be 96 fb 63 be c0 a9 85 ba 72 10 ba 3d
       -0.15240449 -0.22263941 -0.0010197684 0.09085168
000250 42 d6 97 3d aa 1e 1c be 9a b1 55 be b1 50 75 3c
       0.07413913 -0.15246072 -0.20868531 0.014972852
000260 29 a8 f7 bc 98 8b d5 3d da 16 19 be 66 82 30 be
       -0.030231552 0.10427016 -0.14950123 -0.17237243
000270 b2 6e 12 be 95 f2 d6 3c 2b 85 c0 bc cc 3e f5 3d
       -0.1430004 0.026238719 -0.023501 0.11974868
000280 bd 5a 7b 3d f8 0c 4e bd 31 00 3a 3e e6 1c 89 3c
       0.06136583 -0.050305337 0.18164136 0.016737413
000290 8b e3 4b be 6b 78 2a 3e 0a a9 2b be 11 c2 3f bd
       -0.1991102 0.16647498 -0.16763702 -0.046815936
0002a0 b8 a6 c3 bd 5f 24 b5 bd 08 9e 20 bd 69 73 11 3e
       -0.095532835 -0.08844828 -0.03921321 0.14204182
0002b0 91 64 6e bc 54 02 58 be da 12 46 be b9 3e 0d 3e
       -0.014550344 -0.21094638 -0.19343129 0.13793458
0002c0 92 e8 e9 bd aa b1 83 bb 8a 2b 0c 3e fb 11 c4 bd
       -0.114213124 -0.004018982 0.13688484 -0.09573742
0002d0 09 93 b7 3d dd d3 d4 3d 27 01 35 bd 2c 00 13 bd
       0.089635916 0.10391972 -0.044190552 -0.035888836
0002e0 78 3e 1f 3e 79 fd da bd 38 b1 49 be 90 49 b5 3d
       0.15551174 -0.10692877 -0.1969651 0.088519216
0002f0 58 87 84 3d e2 37 03 be 7b 29 37 bd d0 a4 0e bd
       0.06471127 -0.12814286 -0.044717293 -0.034825146
000300 67 fd e1 3d ef 5b 17 3e 86 9b 72 bd 7c 42 94 3b
       0.11034661 0.14781164 -0.05923035 0.004524527
000310 b7 86 9d bd 33 e0 39 3c a6 f4 9f 3c f6 82 4d 3d
       -0.076917104 0.011344957 0.019525837 0.050173722
000320 be bc a9 3c 31 a2 cd bd c4 00 df bd ce e9 fa bd
       0.020719882 -0.10040701 -0.10888818 -0.12251626
000330 34 79 32 be 27 77 29 be 0b 2e b2 3d ad e2 24 3d
       -0.17429048 -0.1654936 0.08700188 0.040255237
000340 0a e6 c7 3d 48 c4 31 3d 56 7a 82 bd 2f d4 42 be
       0.09760673 0.04340008 -0.0637099 -0.19026254
000350 12 86 58 3d be be 18 bd 4c 42 c1 3d ab 02 29 3d
       0.052862234 -0.03729128 0.09436473 0.04126231
000360 84 e1 71 bd a8 36 ae bc 92 39 31 be b4 b6 1a be
       -0.05905296 -0.021266297 -0.17307118 -0.15108758
000370 59 c1 95 3d b1 0c 34 be c3 e9 d4 ba b0 a7 03 bd
       0.07312269 -0.17582966 -0.0016243983 -0.03214234
000380 58 2d 2d 3d d8 91 3d be f9 a2 8f be 3c 8d 17 bd
       0.04227957 -0.18512666 -0.28054026 -0.036999926
000390 af 6b 1f be d7 b4 a1 3c e7 0a 0d 3d 3e f8 55 be
       -0.15568422 0.019739551 0.034434225 -0.20895478
0003a0 6f 69 44 3d 5d 21 87 3e 68 f7 09 bd c8 33 62 bd
       0.04795211 0.26392642 -0.03368321 -0.055225164
0003b0 65 85 50 bd eb b9 2a be 13 9a e9 bd 26 3a 9e 3d
       -0.050908465 -0.16672485 -0.114063405 0.07725935
0003c0 a8 c4 ba bd 9b 78 16 be ae bf 7c 3e c9 33 f7 bd
       -0.091195405 -0.14694445 0.24682495 -0.12070424
0003d0 e7 ac 66 3d ef 24 74 3e 4a cd e2 3d 96 29 97 bd
       0.056317236 0.23842214 0.11074312 -0.07380979
0003e0 f0 88 23 3e de ab b1 bc e1 38 13 be b0 18 98 3d
       0.15970206 -0.021688398 -0.14377166 0.07426584
0003f0 4f 79 e3 3c e8 55 24 be 53 c6 e2 3d 81 09 95 3c
       0.027767805 -0.16048396 0.110729836 0.018193008
