checkpoints/mil.pth (torch, 971104 bytes, 5 tensors)

feat.0.weight f4 [64, 3750]
0.013156326 -0.013564711 -0.0035108791 0.001022579 0.0057588834 0.012556681 -0.01162572 -0.015124416
-0.010579484 -0.015088778 0.014257089 0.011560253 0.00394471 0.0035409029 0.005340238 -0.014060604
0.01585375 0.0020652863 0.003281242 0.01184224 -0.0063838353 -0.01878923 0.0012055293 -0.012889492
0.007591641 -0.014797563 0.010368662 0.0132213235 -0.011998469 0.011047221 0.014991854 0.0066713714
-0.0062032654 0.007272781 -0.0014961292 0.0052076397 0.008530882 0.0061790464 -0.006950326 -0.003032905
0.017652197 0.0019787294 -0.0023589227 0.007983298 -0.014762281 -0.00369384 0.011442323 -0.008418302
-0.00030549202 -0.0008590781 -0.009879385 -0.011576302 0.010321332 -0.002932763 0.00543678 -0.008821474
-0.0018941492 -0.00040524435 -0.004112907 -0.003573102 0.0032466538 0.0074140686 0.010011349 -0.010753995
0.0019878168 -0.0055740154 -0.0062698903 -0.015991649 0.014636815 0.013801103 0.006737447 0.0147191435
0.01495625 0.0024493185 0.005744651 0.006469995 0.0005699061 0.007011465 -0.011059532 -0.00059853843
-0.007463762 0.0004585035 -0.016323805 -0.014720454 0.0075925337 -0.002252723 0.0103773335 0.006555117
-0.004852798 0.009708312 0.0026614182 0.0052563017 0.017056093 0.01004664 0.004495826 -0.0084151495
0.014716532 -0.0037509133 0.0071177236 0.011297831 -0.0077805445 -0.001323267 -0.0021249906 -0.006231126
-0.014344606 0.00045942803 -0.0065556327 0.008265823 -0.012900458 0.011917557 0.0039539733 -0.015352199
0.009347446 0.0044390894 0.004401661 -0.017241906 -0.014919805 0.009384781 -0.0052790083 0.0015586094
-0.005524352 -0.017059729 0.01096429 0.014779674 0.007078684 0.012532608 0.002035867 0.000988382
0.0002895569 -0.011732966 -0.006951248 0.0050298367 -0.015105883 0.013637299 -0.0049546636 0.006581786
0.004193326 0.010570704 -0.0037585923 -0.015899567 0.0061630467 -0.0040875776 0.014952532 -0.0048974426
0.008544665 -0.007470138 -0.016383896 -0.01143728 -0.0038748966 -0.004428569 0.0019824854 0.0015114989
0.012004331 0.004964961 0.01611322 -0.007463787 -0.0023151215 -0.015481676 -0.0071727424 0.014744928
0.0064683678 0.013503951 0.0005127315 0.00015146825 -0.012800531 0.01057858 0.011322605 -0.008882531
0.01218305 -0.016369674 -0.012619972 -0.0023471874 0.000190494 -0.017229576 -0.002183637 8.907166e-06
-0.015136154 0.008450177 -0.015728034 -0.0036833344 0.003119318 -0.0045331465 -0.0090585 -0.015435689
0.007303826 -0.008215813 0.013003406 -0.006566585 0.0031167017 -0.016576657 -0.0058659688 -0.01751174
-0.014799829 -0.010626982 -0.017121209 -0.008647201 -0.008129929 -0.0035593398 -0.009749772 0.0049187774
0.0011683585 -0.00905916 0.0154750785 0.0068958285 -0.009368261 0.005344643 -0.006893584 -0.01318179
-0.011455998 -0.007033754 -0.012355904 -0.00036479725 -0.014038048 -0.0010710583 0.001362512 -0.0031062
0.0041647903 -0.013898232 -0.014725313 -0.01411959 -0.009194973 -0.00628966 0.012424067 0.010878321
0.0018210697 -0.0044736275 -0.0049863746 -0.010038745 0.004045539 0.0020813611 0.0142331375 -0.015428798
0.011007655 -0.0043054507 0.010057351 0.001864473 -0.0020450712 0.0030039838 -0.01308126 -0.015932392
-0.0145429075 -0.008954517 -0.0029733987 0.008788768 0.012398574 -0.008402977 0.01494274 -0.0006390017
0.0019404145 -0.008856068 0.012816868 -0.011603436 -0.014935199 0.0055953152 0.00047516215 0.013214464
00000000: a18d 573c 863e 5ebc c716 66bb 0f08 863a
00000010: 04b5 bc3b 8aba 4d3c ce79 3ebc 66cc 77bc
00000020: 9255 2dbc ec36 77bc 9196 693c 3767 3d3c
00000030: a042 813b 7e0e 683b 2afd ae3b 735e 66bc
00000040: b9df 813c c159 073b 1b0a 573b f405 423c
00000050: 7e2f d1bb dfeb 99bc da02 9e3a 732e 53bc
00000060: 4dc3 f83b 7a71 72bc 52e1 293c 409e 583c
00000070: 3a95 44bc 67ff 343c 65a0 753c 859b da3b
00000080: c344 cbbb 8250 ee3b c419 c4ba d9a4 aa3b
00000090: 1dc5 0b3c 9979 ca3b 8fbf e3bb b4c3 46bb
000000a0: 579b 903c 92ad 013b 2898 1abb 61cc 023c
000000b0: 7fdd 71bc 5a14 72bb 9578 3b3c ebec 09bc
000000c0: 722a a0b9 c133 61ba 25dd 21bc 88aa 3dbc
000000d0: ce1a 293c 9933 40bb 0427 b23b f287 10bc
000000e0: 1a45 f8ba fa76 d4b9 91c5 86bb b42a 6abb
000000f0: d0c5 543b b7f1 f23b a406 243c 8631 30bc
00000100: 0846 023b 3ba6 b6bb a773 cdbb eb00 83bc
00000110: 40cf 6f3c 061e 623c cdc5 dc3b 9028 713c
00000120: 0f0b 753c bf84 203b a03d bc3b 4002 d43b
00000130: c065 153a 6ec0 e53b 0a33 35bc 3ce7 1cba
00000140: 9392 f4bb 4c63 f039 80b9 85bc 0f2e 71bc
00000150: caca f83b 6ca2 13bb b105 2a3c 4fcc d63b
00000160: 3804 9fbb 9d0f 1f3c 306b 2e3b 0e3d ac3b
00000170: 38b9 8b3c aa9a 243c b951 933b b2df 09bc
00000180: 9c1d 713c e2d1 75bb cb3b e93b 8a1a 393c
00000190: f0f3 febb 7971 adba 6d43 0bbb 792e ccbb
000001a0: a305 6bbc 63df f039 a2d0 d6bb 606d 073c
000001b0: 715c 53bc db41 433c 5590 813b ca87 7bbc
000001c0: 0826 193c c875 913b cf3b 903b e63e 8dbc
000001d0: 3372 74bc a0c2 193c 88fb acbb 414a cc3a
000001e0: a005 b5bb d8c0 8bbc 91a3 333c 7226 723c
000001f0: 4ef4 e73b 9155 4d3c 2e6c 053b 998c 813a
00000200: abcf 9739 a03b 40bc 4bc7 e3bb 54d1 a43b
00000210: aa7e 77bc fa6e 5f3c bb5a a2bb 06ac d73b
00000220: 2b68 893b bf30 2d3c b752 76bb cf3f 82bc
00000230: 62f3 c93b 16f1 85bb 77fb 743c ba7a a0bb
00000240: ecfe 0b3c 0fc8 f4bb 8537 86bc 6e63 3bbc
00000250: faf1 7dbb 881d 91bb 96ec 013b 7d1d c63a
00000260: d0ad 443c 1db1 a23b dfff 833c c992 f4bb
00000270: 4bb9 17bb dba6 7dbc 5309 ebbb b694 713c
00000280: 9af4 d33b ad3f 5d3c d468 063a 73d3 1e39
00000290: 52b9 51bc c851 2d3c 7382 393c 0988 11bc
000002a0: 6a9b 473c b219 86bc 00c4 4ebc 45d3 19bb
000002b0: 58bf 4739 0a25 8dbc 5a1b 0fbb fd6f 1537
000002c0: a2fd 77bc 9c72 0a3c 14d8 80bc 1964 71bb
000002d0: 796d 4c3b ca8a 94bb 1a6a 14bc f9e5 7cbc
000002e0: ef54 ef3b 9e9b 06bc 3d0c 553c 822c d7bb
000002f0: 9441 4c3b c5cb 87bc 5037 c0bb c874 8fbc
00000300: fb7a 72bc cb1c 2ebc c741 8cbc fdac 0dbc
00000310: 6533 05bc d043 69bb 82bd 1fbc b22d a13b
00000320: 9b23 993a df6c 14bc 2f8b 7d3c 67f6 e13b
00000330: 567d 19bc 1d22 af3b 93e3 e1bb 6ff8 57bc
00000340: f0b1 3bbc 687b e6bb 6b70 4abc 4242 bfb9
00000350: d7ff 65bc c162 8cba 5196 b23a 6391 4bbb
00000360: cb78 883b 69b5 63bc 7042 71bc da55 67bc
00000370: 83a6 16bc 7e19 cebb 508e 4b3c fc3a 323c
00000380: f6b0 ee3a 8297 92bb be64 a3bb 8c79 24bc
00000390: 7190 843b 7267 083b 1b32 693c 12c9 7cbc
000003a0: 7459 343c bd14 8dbb 96c7 243c 5561 f43a
000003b0: 9a06 06bb 7cde 443b c852 56bc a684 82bc
000003c0: 6045 6ebc f7b5 12bc 5add 42bb c4fe 0f3c
000003d0: 6323 4b3c a4ac 09bc 65d2 743c ae82 27ba
000003e0: 8255 fe3a 0b19 11bc d7fd 513c 571c 3ebc
000003f0: c4b2 74bc e858 b73b 2f1f f939 7b81 583c

feat.0.bias f4 [64]
0.0069624414 -0.008630997 -0.0035962202 0.0062847733 0.0056536635 -0.006338638 -0.015284645 0.015431795
-0.018009959 0.017920509 0.0007267293 0.015232405 -0.017874153 0.00059206894 0.0050660963 -0.013014102
-0.01419297 0.0070487047 -0.0031645978 0.008634006 0.028853822 -0.0042848554 0.00084572844 -0.01411573
0.0134964725 0.030930202 0.014879387 0.022025349 0.006087535 0.0093041025 0.0014164294 -0.01154027
-0.008551177 0.01293685 -0.009553762 0.00042292807 0.0017372285 -0.007204349 -0.020615626 0.008255603
0.00482753 0.004485063 -0.010483191 0.010780236 -0.0073280577 0.01798525 -0.0040328465 0.0039021587
0.022958007 0.008575143 -0.020631965 0.027439343 0.032025836 0.0038720767 0.0058948696 0.022904156
-0.009622875 -0.010757322 0.007834812 0.0224157 0.0037212009 0.014244756 -0.0059242365 0.010007566
00000000: 3125 e43b 0669 0dbc 90ae 6bbb 80f0 cd3b
00000010: 5e42 b93b 59b4 cfbb 736c 7abc a4d5 7c3c
00000020: 9f89 93bc 08ce 923c fa81 3e3a 5691 793c
00000030: d16c 92bc 1335 1b3a 7f01 a63b 1a39 55bc
00000040: a189 68bc d2f8 e63b 2465 4fbb a575 0d3c
00000050: da5e ec3c f967 8cbb e0b3 5d3a aa45 67bc
00000060: 4f20 5d3c 5661 fd3c acc8 733c 816e b43c
00000070: f279 c73b 3c70 183c 7ca7 b93a 6713 3dbc
00000080: 3c1a 0cbc 15f5 533c 6287 1cbc 72bc dd39
00000090: b7b3 e33a 7612 ecbb 1ae2 a8bc 8242 073c
000000a0: 4230 9e3b 6ff7 923b b1c1 2bbc 969f 303c
000000b0: 3420 f0bb ce55 933c f825 84bb 5cbb 7f3b
000000c0: 6e12 bc3c c27e 0c3c 5e04 a9bc 79c8 e03c
000000d0: 862d 033d abc2 7d3b c029 c13b 7fa1 bb3c
000000e0: 43a9 1dbc 7b3f 30bc 955d 003c 21a1 b73c
000000f0: 64df 733b d662 693c 1920 c2bb c6f6 233c

feat.2.weight f4 [32, 64]
-0.112815134 -0.030421931 0.08482794 0.07410517 0.048370168 -0.11274671 0.10276535 -0.08620672
-0.05805863 -0.03064527 -0.08580857 -0.0027385636 0.055112906 0.117561884 -0.05795292 0.033965185
-0.052677047 0.058616303 -0.04813296 -0.045166925 0.072508276 -0.070601396 0.096364416 -0.02266158
-0.055047918 -0.11067863 0.097829945 0.1181942 -0.028891169 0.035535727 0.024061985 -0.12191777
0.09487933 -0.015398757 0.050805826 0.06040045 0.034843214 0.03004395 0.086715795 -0.0018829075
-0.028370913 0.0029934158 0.0918787 -0.05544843 -0.03549801 -0.124050885 0.08782912 0.1018415
-0.085061364 0.036382068 -0.027256133 -0.01933522 -0.03895422 0.11718862 -0.03949924 -0.068968564
0.09474111 -0.086870715 -0.02024181 -0.1277251 -0.04456786 -0.094611004 -0.11963226 -0.086604565
-0.11460245 -0.049420964 -0.12662199 0.02258656 -0.093704626 0.02760728 0.05557676 -0.0840379
0.01778657 -0.1256741 0.057373848 0.0052167648 -0.08402143 -0.03178097 -0.09134791 -0.09736968
-0.09182491 0.08512688 0.024349615 0.003403843 -0.037258893 0.05123898 0.10526728 0.061635375
-0.11832106 0.037596792 -0.11511144 0.021216452 0.062105633 0.092244126 0.011897447 -0.124636516
-0.0027539488 -0.038160253 0.021925904 0.06629546 -0.07899778 0.10087649 0.06842879 0.02574889
0.008401365 0.06283507 -0.0064061154 0.057150282 -0.11230633 0.035216507 0.037657622 -0.071867354
0.096038975 -0.086869165 0.082384095 0.013855115 -0.058488358 -0.022937927 -0.045194734 -0.06895345
-0.07907837 -0.03225412 -0.0681519 -0.037696533 0.014559601 0.1046974 0.10893512 0.054639727
0.041221473 -0.07135759 0.060964014 0.11330945 0.046839792 0.09396101 -0.116333306 0.056291904
-0.020986885 -0.039031312 0.08294718 -0.12557434 0.08570343 -0.004558199 -0.05043324 -0.013081746
-0.08876322 0.030127265 0.025003055 -0.062518395 -0.035047557 0.10741119 -0.016432442 -0.0035017899
-0.034745853 0.11949526 -0.020118166 0.084275 0.042135473 -0.024401214 -0.043974694 0.0143499505
-0.038859457 -0.10094935 -0.06967428 0.042931445 0.096404955 0.05895194 -0.0758737 -0.12323013
0.04827142 0.024376467 -0.016793422 -0.097160965 -0.09666122 -0.04451491 -0.09274044 0.06896917
-0.12268126 -0.034816444 0.037980627 -0.1145388 -0.08850269 0.10442542 -0.008610472 -0.025998348
-0.025911268 -0.040108517 0.05739171 0.11911722 0.034080982 0.030520963 -0.10862978 -0.09251042
-0.038618688 -0.11857548 -0.1287565 0.01176966 -0.09841259 0.062654994 -0.101899 -0.09349339
-0.048311654 0.011638207 0.008340284 0.025704207 -0.01721588 0.114655994 -0.050975673 0.072366185
0.046063744 -0.04494215 -0.031528108 0.06519855 -0.012700332 0.0973549 -0.08105198 0.03190052
0.012157974 -0.079340614 -0.117250405 0.04838149 -0.026439747 -0.039429937 0.09182363 -0.08800103
0.049436156 0.0075532077 0.01809364 0.064568505 0.07666652 0.11627908 -0.1265552 -0.06930457
0.10000021 -0.12175296 0.08749587 0.028256843 0.06534404 0.036558844 0.019953236 0.06974367
0.08683103 -0.033188842 0.058626365 -0.068034545 0.02067095 0.06807593 -0.014613742 0.067776345
0.078167595 0.0041680373 0.098817416 -0.11369833 -0.11846143 0.03407475 -0.033889234 -0.108560435
00000000: 9f0b e7bd 6a37 f9bc 45ba ad3d 74c4 973d
00000010: cc1f 463d bfe7 e6bd a476 d23d 268d b0bd
00000020: e3ce 6dbd ca0b fbbc 67bc afbd 7979 33bb
00000030: 12be 613d 49c4 f03d 0b60 6dbd 141f 0b3d
00000040: e3c3 57bd a617 703d 1127 45bd f400 39bd
00000050: 387f 943d 7797 90bd b55a c53d c7a4 b9bc
00000060: ed79 61bd 7aab e2bd 115b c83d cd0f f23d
00000070: 2cad ecbc e98d 113d a41d c53c 06b0 f9bd
00000080: 1850 c23d 114b 7cbc c519 503d 7666 773d
00000090: c2b7 0e3d bb1e f63c 0d98 b13d e4cb f6ba
000000a0: 1e6a e8bc 2f2d 443b e62a bc3d e51d 63bd
000000b0: 5d66 11bd 640e febd c1df b33d 4792 d03d
000000c0: a734 aebd 5d05 153d 4148 dfbc e564 9ebc
000000d0: 768e 1fbd 9600 f03d f5c9 21bd 643f 8dbd
000000e0: a107 c23d 46e9 b1bd 27d2 a5bc 5eca 02be
000000f0: ca8c 36bd 6ac3 c1bd c201 f5bd bc5d b1bd
00000100: b0b4 eabd a36d 4abd 32a9 01be 7307 b93c
00000110: 36e8 bfbd aa28 e23c 75a4 633d 101c acbd
00000120: 24b5 913c b6b0 00be d700 6b3d 65f1 aa3b
00000130: 6d13 acbd c32c 02bd 9d14 bbbd c169 c7bd
00000140: b30e bcbd 0057 ae3d d878 c73c 0213 5f3b
00000150: c89c 18bd f7df 513d 5f96 d73d 6075 7c3d
00000160: 5052 f2bd 18ff 193d 8cbf ebbd 20ce ad3c
00000170: 7a62 7e3d 7dea bc3d 82ed 423c 6e41 ffbd
00000180: 987b 34bb ed4d 1cbd f49d b33c eac5 873d
00000190: 97c9 a1bd 5598 ce3d 6524 8c3d 56ef d23c
000001a0: e1a5 093c acaf 803d 64ea d1bb 6a16 6a3d
000001b0: dc00 e6bd 2f3f 103d e13e 1a3d 312f 93bd
000001c0: 15b0 c43d 76e8 b1bd feb8 a83d 9000 633c
000001d0: 7d91 6fbd 52e8 bbbc 1d1e 39bd 7737 8dbd
000001e0: d7f3 a1bd e51c 04bd 3993 8bbd ae67 1abd
000001f0: 658b 6e3c 976b d63d 6019 df3d e8cd 5f3d
00000200: d9d7 283d ee23 92bd 67b5 793d c90e e83d
00000210: 15db 3f3d a16e c03d 2840 eebd 5792 663d
00000220: b0ec abbc 4cdf 1fbd 36e0 a93d 8f96 00be
00000230: 4885 af3d f25c 95bb 1693 4ebd d254 56bc
00000240: 7ec9 b5bd 74cd f63c 35d3 cc3c a509 80bd
00000250: 078e 0fbd 66fa db3d 549d 86bc 497e 65bb
00000260: ab51 0ebd eeb9 f43d dace a4bc 5f98 ac3d
00000270: 3f96 2c3d 0ee5 c7bc cf1e 34bd 0e1c 6b3c
00000280: 182b 1fbd 88be cebd 64b1 8ebd e2d8 2f3d
00000290: f66f c53d 9777 713d ac63 9bbd 1460 fcbd
000002a0: 41b8 453d 28b1 c73c 5c92 89bc 54fc c6bd
000002b0: 51f6 c5bd 4455 36bd b3ee bdbd b53f 8d3d
000002c0: 5040 fbbd b09b 0ebd 9391 1b3d 5293 eabd
000002d0: e640 b5bd ffdc d53d f012 0dbc 7dfa d4bc
000002e0: de43 d4bc d448 24bd 9213 6b3d bbf3 f33d
000002f0: 8098 0b3d 1907 fa3c 4a79 debd 1a76 bdbd
00000300: a12e 1ebd b4d7 f2bd bed8 03be 88d5 403c
00000310: 8a8c c9bd 4351 803d 6cb0 d0bd 7679 bfbd
00000320: 71e2 45bd 2eae 3e3c b0a5 083c a191 d23c
00000330: 5108 8dbc c3d0 ea3d decb 50bd b934 943d
00000340: 56ad 3c3d 4315 38bd 9e23 01bd d186 853d
00000350: 0e15 50bc 0162 c73d 95fe a5bd 1faa 023d
00000360: 3d32 473c 557d a2bd fb20 f0bd ab2b 463d
00000370: 2b98 d8bc 4981 21bd 070e bc3d e239 b4bd
00000380: 917d 4a3d e680 f73b 1d39 943c 7e3c 843d
00000390: 5603 9d3d ba23 ee3d b097 01be 8eef 8dbd
000003a0: e9cc cc3d 9e59 f9bd 0931 b33d e57a e73c
000003b0: 19d3 853d babe 153d f874 a33c c5d5 8e3d
000003c0: 78d4 b13d 06f1 07bd 3322 703d b255 8bbd
000003d0: 2056 a93c 656b 8b3d 7a6e 6fbc 53ce 8a3d
000003e0: 5516 a03d 0894 883b c960 ca3d acda e8bd
000003f0: e89b f2bd f791 0b3d 70cf 0abd ef54 debd

feat.2.bias f4 [32]
0.014712513 -0.050404172 -0.07877704 0.00065104617 -0.08728178 0.076465756 0.10369495 -0.03318231
-0.13300759 0.106747694 0.13588586 0.06725788 -0.00036457935 0.063104525 -0.015162442 -0.079299
0.13063435 0.1261029 -0.023959344 -0.052595537 -0.014533 -0.079190694 0.0062523866 0.076198
0.03339994 -0.09649659 0.03292478 -0.047446463 0.0106394645 -0.08819933 -0.08804841 -0.09463917
00000000: c10c 713c 9b74 4ebd db55 a1bd f8aa 2a3a
00000010: cac0 b2bd 149a 9c3d 055e d43d 2dea 07bd
00000020: 2433 08be 899e da3d aa25 0b3e 80be 893d
00000030: 0325 bfb9 f23c 813d e46b 78bc 8467 a2bd
00000040: 03c5 053e 1e21 013e 6346 c4bc 6b6e 57bd
00000050: d21b 6ebc bb2e a2bd d2e0 cc3b b20d 9c3d
00000060: 60ce 083d 01a0 c5bd 22dc 063d 3957 42bd
00000070: 2651 2e3c daa1 b4bd ba52 b4bd 2ed2 c1bd

classifier.0.weight f4 [1, 32]
0.15146798 0.10584298 -0.001912812 0.04893088 0.16284914 0.028856872 0.07103095 -0.13127543
0.093921766 0.014371866 -0.12091154 0.13454224 0.03906824 -0.12574556 0.14416167 0.12331162
-0.03204068 -0.08017669 0.07686737 0.06629915 0.06537463 -0.038238823 -0.016382737 0.0029688429
0.15958223 0.050688714 -0.08815753 0.1023322 -0.10084291 0.047546003 -0.028791705 0.06799398
00000000: 6c1a 1b3e 34c4 d83d 52b7 faba bf6b 483d
00000010: edc1 263e 3f65 ec3c ad78 913d 116d 06be
00000020: 0e5a c03d fa77 6b3c 78a0 f7bd 71c5 093e
00000030: 0506 203d 72c3 00be 1e9f 133e cd8a fc3d
00000040: 173d 03bd ad33 a4bd a46c 9d3d d9c7 873d
00000050: 22e3 853d 50a0 1cbd 1735 86bc eb90 423b
00000060: 8669 233e f89e 4f3d ef8b b4bd 8b93 d13d
00000070: ba86 cebd 99bf 423d 95dc ebbc 6e40 8b3d
